OpenMV/trained.tflite (tflite, 56616 bytes, 21 tensors)

model_1/logits/Conv2D i1 [3, 1, 1, 32]
000000 60 52 7f af b8 04 e8 24 f4 36 23 da d3 91 67 21
       96 82 127 -81 -72 4 -24 36 -12 54 35 -38 -45 -111 103 33
000010 bc 57 60 73 ec e1 2b 9e 89 6e c1 0c 50 0a e9 f9
       -68 87 96 115 -20 -31 43 -98 -119 110 -63 12 80 10 -23 -7
000020 2d d8 b5 14 f4 7f e1 f7 7a d1 fb b5 bf 6b 26 c8
       45 -40 -75 20 -12 127 -31 -9 122 -47 -5 -75 -65 107 38 -56
000030 5c cc f5 95 8c 16 71 41 18 13 ff f0 b0 cb fd e6
       92 -52 -11 -107 -116 22 113 65 24 19 -1 -16 -80 -53 -3 -26
000040 dc 4e ae 49 56 d6 df 74 5e 27 7f fa 9d a9 51 77
       -36 78 -82 73 86 -42 -33 116 94 39 127 -6 -99 -87 81 119
000050 ab ca fc 8e 49 77 cf a1 53 c5 ed 89 0f b2 59 e7
       -85 -54 -4 -114 73 119 -49 -95 83 -59 -19 -119 15 -78 89 -25

model_1/head/Conv2D i1 [32, 1, 1, 96]
000000 da ce 79 0f 66 f1 a2 a2 43 a2 8c fe 37 08 da 38
       -38 -50 121 15 102 -15 -94 -94 67 -94 -116 -2 55 8 -38 56
000010 c5 dd c1 c1 b2 93 08 75 92 07 53 d5 73 f6 ec a6
       -59 -35 -63 -63 -78 -109 8 117 -110 7 83 -43 115 -10 -20 -90
000020 64 bd 9f 4b 92 a7 b0 1e 4e a4 91 70 37 89 6f ec
       100 -67 -97 75 -110 -89 -80 30 78 -92 -111 112 55 -119 111 -20
000030 1a bd d4 62 ba c7 9a 71 1c 43 7e 8b aa 66 c7 36
       26 -67 -44 98 -70 -57 -102 113 28 67 126 -117 -86 102 -57 54
000040 02 0d 4e 64 37 60 5f 81 6d 98 34 60 8a 13 c0 2b
       2 13 78 100 55 96 95 -127 109 -104 52 96 -118 19 -64 43
000050 37 14 63 f7 c0 d2 a3 68 1c 7b f4 81 0a 45 1c 0d
       55 20 99 -9 -64 -46 -93 104 28 123 -12 -127 10 69 28 13
000060 c9 1d b7 02 cf 4d 29 07 53 96 9d 6a 3a ea 1c 3f
       -55 29 -73 2 -49 77 41 7 83 -106 -99 106 58 -22 28 63
000070 6b db 22 7a d5 fe 23 1f 1c 14 d5 5d 0a fb 57 b4
       107 -37 34 122 -43 -2 35 31 28 20 -43 93 10 -5 87 -76
000080 33 65 f5 0d 2d 40 f9 c3 c7 09 ec 9e e2 23 e7 ce
       51 101 -11 13 45 64 -7 -61 -57 9 -20 -98 -30 35 -25 -50
000090 e7 af 69 3c 05 4f b9 d4 17 60 3e 51 cb 70 b8 a0
       -25 -81 105 60 5 79 -71 -44 23 96 62 81 -53 112 -72 -96
0000a0 bd 26 4e 2b 62 1a 04 0e 8c 56 ca 2a 4c d2 db 48
       -67 38 78 43 98 26 4 14 -116 86 -54 42 76 -46 -37 72
0000b0 b4 51 cb 81 1e 74 be c4 51 52 61 0a 54 5f 1d fd
       -76 81 -53 -127 30 116 -66 -60 81 82 97 10 84 95 29 -3
0000c0 2b 25 c5 68 e2 dc 60 6c 96 5d da 7a 6f ef 57 8c
       43 37 -59 104 -30 -36 96 108 -106 93 -38 122 111 -17 87 -116
0000d0 cd e1 3b 31 99 f5 7d 1b e3 51 6d 17 c3 5b 55 5e
       -51 -31 59 49 -103 -11 125 27 -29 81 109 23 -61 91 85 94
0000e0 bd ea b6 8b b1 60 77 e3 81 ad 0c fd a3 79 e0 b1
       -67 -22 -74 -117 -79 96 119 -29 -127 -83 12 -3 -93 121 -32 -79
0000f0 6c 36 5c a1 e6 41 13 0d cf 69 c6 0b e8 50 d7 4a
       108 54 92 -95 -26 65 19 13 -49 105 -58 11 -24 80 -41 74

model_1/block_6_expand/Conv2D i1 [96, 1, 1, 16]
000000 da 66 f9 81 d6 da e5 b4 f4 0b 0a 4e 0f cd f7 2d
       -38 102 -7 -127 -42 -38 -27 -76 -12 11 10 78 15 -51 -9 45
000010 de 0f c2 f5 de de 1c af 35 2d ca 14 fb ff 2c 81
       -34 15 -62 -11 -34 -34 28 -81 53 45 -54 20 -5 -1 44 -127
000020 f6 16 d2 2b 28 0c ca b8 7f e1 07 ff eb 54 c5 0f
       -10 22 -46 43 40 12 -54 -72 127 -31 7 -1 -21 84 -59 15
000030 32 c3 09 a4 0a ed fd 04 69 07 3a 29 00 2d 0f 7f
       50 -61 9 -92 10 -19 -3 4 105 7 58 41 0 45 15 127
000040 aa 33 08 23 01 e7 f9 21 ff 03 18 e4 81 f9 f7 16
       -86 51 8 35 1 -25 -7 33 -1 3 24 -28 -127 -7 -9 22
000050 03 48 7c 03 1f 52 b9 52 c5 54 ed de 26 e4 81 0b
       3 72 124 3 31 82 -71 82 -59 84 -19 -34 38 -28 -127 11
000060 1a c0 6b 81 23 f8 dd 55 b1 99 3c df fa 50 ef 43
       26 -64 107 -127 35 -8 -35 85 -79 -103 60 -33 -6 80 -17 67
000070 18 72 e0 cb 52 0a 07 d4 7f 5d ed 17 1d f0 40 2b
       24 114 -32 -53 82 10 7 -44 127 93 -19 23 29 -16 64 43
000080 07 ab 06 a3 16 c2 0f b0 15 39 50 f4 0c 7f 51 36
       7 -85 6 -93 22 -62 15 -80 21 57 80 -12 12 127 81 54
000090 0c e0 ff 7f 28 fb 2a c8 c5 70 1b ef fe c5 f5 fc
       12 -32 -1 127 40 -5 42 -56 -59 112 27 -17 -2 -59 -11 -4
0000a0 f2 23 c9 81 0a 02 f1 21 25 e2 17 da ec cc 05 22
       -14 35 -55 -127 10 2 -15 33 37 -30 23 -38 -20 -52 5 34
0000b0 fd 0c 13 e6 57 db 5a be a3 20 03 1d f9 7f bd da
       -3 12 19 -26 87 -37 90 -66 -93 32 3 29 -7 127 -67 -38
0000c0 49 f1 96 ff 26 be 1a 1f 1a 39 c1 e5 e5 7f fa 1e
       73 -15 -106 -1 38 -66 26 31 26 57 -63 -27 -27 127 -6 30
0000d0 ef 08 e8 0b 06 81 fd 11 05 f6 09 fe 0b f3 08 0a
       -17 8 -24 11 6 -127 -3 17 5 -10 9 -2 11 -13 8 10
0000e0 1e ec 5e e9 3e 0d 81 b0 f6 dd 13 17 0f cd eb ea
       30 -20 94 -23 62 13 -127 -80 -10 -35 19 23 15 -51 -21 -22
0000f0 ae 10 e8 c6 fd 01 7f 31 cf 2f 48 d4 01 4b 47 12
       -82 16 -24 -58 -3 1 127 49 -49 47 72 -44 1 75 71 18

model_1/block_5_project/Conv2D i1 [16, 1, 1, 96]
000000 ef f8 07 e5 0e fe dd 02 0d 00 f9 01 ff fa e3 07
       -17 -8 7 -27 14 -2 -35 2 13 0 -7 1 -1 -6 -29 7
000010 fc 02 fa fb 06 e4 01 05 05 10 04 7f 22 e1 25 f9
       -4 2 -6 -5 6 -28 1 5 5 16 4 127 34 -31 37 -7
000020 01 07 09 07 fa 0c d7 ff f9 0b 03 21 0a 0c 0d 03
       1 7 9 7 -6 12 -41 -1 -7 11 3 33 10 12 13 3
000030 1a 06 fa 04 13 ee f6 4b 04 05 e7 e2 fb 14 00 e5
       26 6 -6 4 19 -18 -10 75 4 5 -25 -30 -5 20 0 -27
000040 d5 c4 ed 21 08 05 0d ef f7 df fe eb eb 16 05 06
       -43 -60 -19 33 8 5 13 -17 -9 -33 -2 -21 -21 22 5 6
000050 f6 e8 16 12 fa f6 fd aa 04 f5 0b 00 32 dc dc f3
       -10 -24 22 18 -6 -10 -3 -86 4 -11 11 0 50 -36 -36 -13
000060 1f af bc cd 7f f8 44 2a ee a2 cd e7 0b f1 bb 26
       31 -81 -68 -51 127 -8 68 42 -18 -94 -51 -25 11 -15 -69 38
000070 c0 0b 2a 24 0d 21 ec c9 07 ff ee b7 2a f1 b8 26
       -64 11 42 36 13 33 -20 -55 7 -1 -18 -73 42 -15 -72 38
000080 e8 1c 0b fc 09 fb f6 1f e1 2c db e5 d7 58 10 03
       -24 28 11 -4 9 -5 -10 31 -31 44 -37 -27 -41 88 16 3
000090 1a b8 0c ce f2 22 37 0c ce e4 e3 e2 15 e8 08 ce
       26 -72 12 -50 -14 34 55 12 -50 -28 -29 -30 21 -24 8 -50
0000a0 a2 6f e9 e6 f9 dc e5 0a 34 90 e7 06 27 d4 2b 0b
       -94 111 -23 -26 -7 -36 -27 10 52 -112 -25 6 39 -44 43 11
0000b0 02 e1 16 09 ca 1f f5 1c 22 d7 00 10 24 02 24 60
       2 -31 22 9 -54 31 -11 28 34 -41 0 16 36 2 36 96
0000c0 fb 45 ad ee 54 58 18 54 f6 92 00 f1 05 ff 17 22
       -5 69 -83 -18 84 88 24 84 -10 -110 0 -15 5 -1 23 34
0000d0 10 e6 d6 50 12 05 4f 1c 2c 16 03 e1 21 f6 3b c6
       16 -26 -42 80 18 5 79 28 44 22 3 -31 33 -10 59 -58
0000e0 25 32 e3 34 81 b1 26 17 0a c8 0f f3 1a e1 fc 46
       37 50 -29 52 -127 -79 38 23 10 -56 15 -13 26 -31 -4 70
0000f0 e6 1d e9 f1 56 01 f2 40 16 0f 17 08 1c 14 1f e8
       -26 29 -23 -15 86 1 -14 64 22 15 23 8 28 20 31 -24

model_1/block_5_depthwise_BN/FusedBatchNormV3;model_1/block_5_depthwise/depthwise;model_1/block_6_expand/Conv2D i1 [1, 3, 3, 96]
000000 d3 b8 f5 7f 16 46 4c c6 f2 ee f1 fb e3 01 25 01
       -45 -72 -11 127 22 70 76 -58 -14 -18 -15 -5 -29 1 37 1
000010 f7 d6 1b 16 13 81 7f 05 ac 06 32 e4 83 81 26 17
       -9 -42 27 22 19 -127 127 5 -84 6 50 -28 -125 -127 38 23
000020 0c 19 3e ee e2 f6 1f f8 f4 1c 93 47 19 bb 26 2f
       12 25 62 -18 -30 -10 31 -8 -12 28 -109 71 25 -69 38 47
000030 ee 32 e7 13 03 f9 10 30 a7 cf c6 ee f5 00 0a 26
       -18 50 -25 19 3 -7 16 48 -89 -49 -58 -18 -11 0 10 38
000040 44 e7 4a 0e f8 11 13 7f 18 18 19 00 f5 10 7f fa
       68 -25 74 14 -8 17 19 127 24 24 25 0 -11 16 127 -6
000050 f1 0e e3 14 7d 15 b5 ef 00 e0 f1 da 01 e8 f1 19
       -15 14 -29 20 125 21 -75 -17 0 -32 -15 -38 1 -24 -15 25
000060 7f 81 4a 69 d5 7f 26 8c 47 04 ee 7f 7f 9e f3 0f
       127 -127 74 105 -43 127 38 -116 71 4 -18 127 127 -98 -13 15
000070 0a 7f 7f 90 7f b2 52 44 81 89 bf de cb 2d c4 ed
       10 127 127 -112 127 -78 82 68 -127 -119 -65 -34 -53 45 -60 -19
000080 a6 35 81 ad d5 f1 cb 3f 00 7f 7f 52 cc 8d 8f ce
       -90 53 -127 -83 -43 -15 -53 63 0 127 127 82 -52 -115 -113 -50
000090 f1 81 2b 55 44 e0 2e 54 d2 2a b2 90 d4 d7 c2 44
       -15 -127 43 85 68 -32 46 84 -46 42 -78 -112 -44 -41 -62 68
0000a0 4a c3 1a 1f af 21 ef 5b 76 7f 0d 14 01 39 e0 35
       74 -61 26 31 -81 33 -17 91 118 127 13 20 1 57 -32 53
0000b0 40 7f 7f e9 f6 4c 92 7f 89 9c 04 81 a7 81 db 68
       64 127 127 -23 -10 76 -110 127 -119 -100 4 -127 -89 -127 -37 104
0000c0 b7 f3 1d ad 0f e7 3f f9 51 de e4 11 ed fc f8 f3
       -73 -13 29 -83 15 -25 63 -7 81 -34 -28 17 -19 -4 -8 -13
0000d0 f7 f1 07 fc e9 97 1d fe 88 61 09 ca 76 31 f0 09
       -9 -15 7 -4 -23 -105 29 -2 -120 97 9 -54 118 49 -16 9
0000e0 01 0d 0f e3 f7 23 14 0c 19 0c 88 40 12 ed 25 0e
       1 13 15 -29 -9 35 20 12 25 12 -120 64 18 -19 37 14
0000f0 f2 0b ef 04 f6 01 fd 15 bf 06 e1 34 02 28 21 00
       -14 11 -17 4 -10 1 -3 21 -65 6 -31 52 2 40 33 0

model_1/block_5_expand/Conv2D i1 [96, 1, 1, 16]
000000 05 3b ee 57 1e 2c 02 e9 2b 27 b8 79 06 86 34 81
       5 59 -18 87 30 44 2 -23 43 39 -72 121 6 -122 52 -127
000010 0b 39 f7 f1 12 da 7f a1 0a 59 f9 f7 0d dc 1e 04
       11 57 -9 -15 18 -38 127 -95 10 89 -7 -9 13 -36 30 4
000020 81 21 e5 ec ff 08 36 76 d1 4b 76 f6 b2 09 13 c5
       -127 33 -27 -20 -1 8 54 118 -47 75 118 -10 -78 9 19 -59
000030 a5 4a 32 41 d3 4b 49 7b 02 4a 81 f9 1d a0 a2 bc
       -91 74 50 65 -45 75 73 123 2 74 -127 -7 29 -96 -94 -68
000040 11 03 1d 4b e4 3b 02 39 ff f3 fb f9 1f f5 81 ea
       17 3 29 75 -28 59 2 57 -1 -13 -5 -7 31 -11 -127 -22
000050 f5 e6 3a e9 07 e9 f8 1c bc 67 e6 81 f1 16 cd ed
       -11 -26 58 -23 7 -23 -8 28 -68 103 -26 -127 -15 22 -51 -19
000060 09 01 1d f8 23 3d c4 bd fc 05 31 f0 7f ee f8 d8
       9 1 29 -8 35 61 -60 -67 -4 5 49 -16 127 -18 -8 -40
000070 10 0b 7f e8 e4 d2 fe f6 a9 11 b7 cb 07 f3 1d f3
       16 11 127 -24 -28 -46 -2 -10 -87 17 -73 -53 7 -13 29 -13
000080 0c 2a 46 37 bf 42 21 3a 31 f9 17 b6 e7 13 81 aa
       12 42 70 55 -65 66 33 58 49 -7 23 -74 -25 19 -127 -86
000090 25 87 47 3b 14 e9 f9 15 7a 0a 4b 16 db 0a 81 d4
       37 -121 71 59 20 -23 -7 21 122 10 75 22 -37 10 -127 -44
0000a0 d1 af 02 e3 96 05 fc 35 5f 7f 31 e4 e7 37 4d f1
       -47 -81 2 -29 -106 5 -4 53 95 127 49 -28 -25 55 77 -15
0000b0 2f e4 0b a9 11 e1 96 81 cf 2a fb e2 1a ed 24 c0
       47 -28 11 -87 17 -31 -106 -127 -49 42 -5 -30 26 -19 36 -64
0000c0 f2 12 01 d9 e1 d1 b1 f7 dd b9 f4 16 1d 7f 53 1e
       -14 18 1 -39 -31 -47 -79 -9 -35 -71 -12 22 29 127 83 30
0000d0 dd 82 be 2e 00 bf 06 ea 46 17 ec f8 1d 1f 7f 1e
       -35 -126 -66 46 0 -65 6 -22 70 23 -20 -8 29 31 127 30
0000e0 f8 c8 46 26 20 2d 07 7f 1f 37 0d de 13 39 c9 74
       -8 -56 70 38 32 45 7 127 31 55 13 -34 19 57 -55 116
0000f0 18 e0 03 3e 0c 00 66 03 07 81 0b d8 03 ec ff e1
       24 -32 3 62 12 0 102 3 7 -127 11 -40 3 -20 -1 -31

model_1/block_4_project/Conv2D i1 [16, 1, 1, 96]
000000 fb 15 fb 0e 29 3d e1 df 29 02 0b 06 f2 12 11 3b
       -5 21 -5 14 41 61 -31 -33 41 2 11 6 -14 18 17 59
000010 ff f6 f3 f8 5a d2 0d fa e8 e6 d8 a0 00 f8 28 26
       -1 -10 -13 -8 90 -46 13 -6 -24 -26 -40 -96 0 -8 40 38
000020 70 f4 02 ff 06 ea f2 02 eb 10 11 e9 00 e6 fb 1f
       112 -12 2 -1 6 -22 -14 2 -21 16 17 -23 0 -26 -5 31
000030 f0 16 09 f7 e0 f8 09 fe 28 13 e8 ec c2 1f f3 f3
       -16 22 9 -9 -32 -8 9 -2 40 19 -24 -20 -62 31 -13 -13
000040 13 0c 38 05 0e 02 06 df c6 f6 fa fd fa a8 0c ec
       19 12 56 5 14 2 6 -33 -58 -10 -6 -3 -6 -88 12 -20
000050 2a f1 c4 d6 22 f2 05 1b fd 00 0f e8 19 0e f7 7f
       42 -15 -60 -42 34 -14 5 27 -3 0 15 -24 25 14 -9 127
000060 4a 93 36 58 f1 b2 f4 cb dd 9c f2 11 11 b6 e5 bd
       74 -109 54 88 -15 -78 -12 -53 -35 -100 -14 17 17 -74 -27 -67
000070 b0 f4 0f 21 d0 97 e1 20 7f c4 b4 0a d7 63 eb 2e
       -80 -12 15 33 -48 -105 -31 32 127 -60 -76 10 -41 99 -21 46
000080 07 1a ca 10 f1 fe 3f dd 05 b7 4a e4 c0 0c 45 02
       7 26 -54 16 -15 -2 63 -35 5 -73 74 -28 -64 12 69 2
000090 21 17 04 bb 4d b4 31 ee 1f 21 f3 8a 24 c0 0a d2
       33 23 4 -69 77 -76 49 -18 31 33 -13 -118 36 -64 10 -46
0000a0 fb a5 24 27 26 3c d0 08 97 20 e2 4b 33 6a 10 e8
       -5 -91 36 39 38 60 -48 8 -105 32 -30 75 51 106 16 -24
0000b0 2f 07 af 1d b0 3a fd 4e de 03 1d 15 09 c9 2e f9
       47 7 -81 29 -80 58 -3 78 -34 3 29 21 9 -55 46 -7
0000c0 1e 15 08 e8 0c fa fd 25 43 f5 13 47 fb 0e 2d 0b
       30 21 8 -24 12 -6 -3 37 67 -11 19 71 -5 14 45 11
0000d0 f3 ed 10 f7 f4 c8 fe d0 fc f0 e9 1d 02 16 75 c7
       -13 -19 16 -9 -12 -56 -2 -48 -4 -16 -23 29 2 22 117 -57
0000e0 13 ae e6 33 13 7f d3 e9 0b e7 01 21 d5 c7 bc 16
       19 -82 -26 51 19 127 -45 -23 11 -25 1 33 -43 -57 -68 22
0000f0 19 16 e6 e6 12 05 02 e9 dd fe ff 1e 08 0a 53 5f
       25 22 -26 -26 18 5 2 -23 -35 -2 -1 30 8 10 83 95

model_1/block_4_depthwise_BN/FusedBatchNormV3;model_1/block_4_depthwise/depthwise;model_1/block_6_expand/Conv2D i1 [1, 3, 3, 96]
000000 ef 05 ec 69 ee 17 c2 ca 11 fa 64 f7 04 f9 fb 36
       -17 5 -20 105 -18 23 -62 -54 17 -6 100 -9 4 -7 -5 54
000010 06 10 df 03 4a 02 1f df 02 11 2d 31 14 0d 17 2f
       6 16 -33 3 74 2 31 -33 2 17 45 49 20 13 23 47
000020 fa 1b 09 f1 05 31 c6 e7 13 09 1b 12 ac c9 19 fb
       -6 27 9 -15 5 49 -58 -25 19 9 27 18 -84 -55 25 -5
000030 f5 ec f8 fa 31 06 f8 01 fd dd 1e e2 1b fe 7f 1b
       -11 -20 -8 -6 49 6 -8 1 -3 -35 30 -30 27 -2 127 27
000040 f3 f6 0a cc 42 24 02 f9 4f e1 46 04 11 81 1e 42
       -13 -10 10 -52 66 36 2 -7 79 -31 70 4 17 -127 30 66
000050 01 0f 7f f2 25 1d e4 eb 23 f9 f3 52 02 14 fe 0d
       1 15 127 -14 37 29 -28 -21 35 -7 -13 82 2 20 -2 13
000060 d0 0c f8 09 33 f8 f6 81 27 0e 81 fb f0 f5 04 5b
       -48 12 -8 9 51 -8 -10 -127 39 14 -127 -5 -16 -11 4 91
000070 12 e3 f3 f1 4d 9f 7f 1a c2 e1 97 f1 1b 23 cf 12
       18 -29 -13 -15 77 -97 127 26 -62 -31 -105 -15 27 35 -49 18
000080 78 0c f2 ff e9 7f c0 81 08 ed e2 0f 2f 81 7f d4
       120 12 -14 -1 -23 127 -64 -127 8 -19 -30 15 47 -127 127 -44
000090 b3 31 30 07 27 c1 1f 37 25 2b 9b 53 7f 22 04 ec
       -77 49 48 7 39 -63 31 55 37 43 -101 83 127 34 4 -20
0000a0 2a db a1 00 26 e2 ee 2c cf d1 6b fc e3 c4 e0 41
       42 -37 -95 0 38 -30 -18 44 -49 -47 107 -4 -29 -60 -32 65
0000b0 be 3e f2 09 f5 2f 37 d6 e4 35 f4 49 81 e2 18 81
       -66 62 -14 9 -11 47 55 -42 -28 53 -12 73 -127 -30 24 -127
0000c0 01 fb e9 b5 07 13 26 15 fd fe 05 3e 00 f3 f5 07
       1 -5 -23 -75 7 19 38 21 -3 -2 5 62 0 -13 -11 7
0000d0 f3 11 f2 11 05 19 18 e0 01 e1 0b 0d f9 06 2e b1
       -13 17 -14 17 5 25 24 -32 1 -31 11 13 -7 6 46 -79
0000e0 2c 11 09 ea 0d 03 e2 ec 07 02 f0 09 17 df 14 01
       44 17 9 -22 13 3 -30 -20 7 2 -16 9 23 -33 20 1
0000f0 06 f7 06 fb 05 06 fa 08 f9 2d 06 fd 0c ee 03 ef
       6 -9 6 -5 5 6 -6 8 -7 45 6 -3 12 -18 3 -17

model_1/block_4_expand/Conv2D i1 [96, 1, 1, 16]
000000 40 ea 7f 7c 40 cf 2b f1 73 f0 b3 9f 31 6d c3 b1
       64 -22 127 124 64 -49 43 -15 115 -16 -77 -97 49 109 -61 -79
000010 2f 53 fb 07 63 02 06 1f 37 56 d4 7f 02 e1 61 a2
       47 83 -5 7 99 2 6 31 55 86 -44 127 2 -31 97 -94
000020 0c be 03 f7 ce 2e bf 54 b2 92 15 57 f6 81 65 92
       12 -66 3 -9 -50 46 -65 84 -78 -110 21 87 -10 -127 101 -110
000030 74 7f f9 2b 88 eb c8 e4 05 08 6d bb ce 5c d4 d5
       116 127 -7 43 -120 -21 -56 -28 5 8 109 -69 -50 92 -44 -43
000040 0b fb 10 0a e3 1a ec 23 c0 df f6 f7 f9 81 16 03
       11 -5 16 10 -29 26 -20 35 -64 -33 -10 -9 -7 -127 22 3
000050 7f c6 e7 f9 f5 87 f0 1e f8 01 89 f7 28 07 01 1e
       127 -58 -25 -7 -11 -121 -16 30 -8 1 -119 -9 40 7 1 30
000060 85 c1 fd 62 cb f7 d2 24 81 b2 b7 de 28 46 ee 5d
       -123 -63 -3 98 -53 -9 -46 36 -127 -78 -73 -34 40 70 -18 93
000070 f3 0d b6 34 26 81 ec 2a 0d e5 06 02 00 15 d5 0f
       -13 13 -74 52 38 -127 -20 42 13 -27 6 2 0 21 -43 15
000080 27 ca f5 ef 05 1d cd c6 f1 0c b4 03 81 04 f9 1f
       39 -54 -11 -17 5 29 -51 -58 -15 12 -76 3 -127 4 -7 31
000090 25 c1 41 7f f9 18 02 b5 7d 9c f4 e0 02 3d a9 1a
       37 -63 65 127 -7 24 2 -75 125 -100 -12 -32 2 61 -87 26
0000a0 8f a5 00 db 7f 42 20 40 77 a8 a7 1e 5c 99 96 54
       -113 -91 0 -37 127 66 32 64 119 -88 -89 30 92 -103 -106 84
0000b0 2e f7 81 18 2e 1e ee 26 f2 e4 f4 f5 fc 14 d3 03
       46 -9 -127 24 46 30 -18 38 -14 -28 -12 -11 -4 20 -45 3
0000c0 6c c9 0b 07 f0 c7 cf f1 29 04 81 ed d5 fa fb 3a
       108 -55 11 7 -16 -57 -49 -15 41 4 -127 -19 -43 -6 -5 58
0000d0 11 c1 0d b0 71 10 9e 81 1f b6 22 0f fe dc 26 0c
       17 -63 13 -80 113 16 -98 -127 31 -74 34 15 -2 -36 38 12
0000e0 d3 1a 9e ce 4d 81 42 cc 33 31 f1 97 1c 77 e4 25
       -45 26 -98 -50 77 -127 66 -52 51 49 -15 -105 28 119 -28 37
0000f0 22 fe 32 25 2c cd e6 fb 0a d0 b6 f2 81 c7 e8 3f
       34 -2 50 37 44 -51 -26 -5 10 -48 -74 -14 -127 -57 -24 63

model_1/block_3_project/Conv2D i1 [16, 1, 1, 48]
000000 ec ff ea 0d 1a 00 03 6b d2 0e 2d fe 0e ed f0 12
       -20 -1 -22 13 26 0 3 107 -46 14 45 -2 14 -19 -16 18
000010 10 ef fb 00 3e fa 14 7d f3 5b fd f3 18 f0 15 ea
       16 -17 -5 0 62 -6 20 125 -13 91 -3 -13 24 -16 21 -22
000020 f2 30 19 d3 13 2c 15 f5 93 eb 19 28 21 1d 81 ce
       -14 48 25 -45 19 44 21 -11 -109 -21 25 40 33 29 -127 -50
000030 d9 f7 11 11 e1 0f fd 38 ce e2 08 d9 e7 f1 fe fc
       -39 -9 17 17 -31 15 -3 56 -50 -30 8 -39 -25 -15 -2 -4
000040 e5 71 f3 16 08 07 e7 ec 1d d8 13 1b e8 b0 d7 14
       -27 113 -13 22 8 7 -25 -20 29 -40 19 27 -24 -80 -41 20
000050 f0 f9 22 fd fb d5 04 12 eb e3 7f 0a 06 00 19 f3
       -16 -7 34 -3 -5 -43 4 18 -21 -29 127 10 6 0 25 -13
000060 e8 f7 f5 de 00 bc 06 ed 02 0b 11 1c 10 0f f1 0a
       -24 -9 -11 -34 0 -68 6 -19 2 11 17 28 16 15 -15 10
000070 fe ec e9 f1 fa fe 00 81 f3 4d ef 02 00 eb fc f9
       -2 -20 -23 -15 -6 -2 0 -127 -13 77 -17 2 0 -21 -4 -7
000080 f6 39 0b 02 16 09 1c 03 d9 04 eb f9 ff f6 0d 06
       -10 57 11 2 22 9 28 3 -39 4 -21 -7 -1 -10 13 6
000090 f6 22 04 e3 ff fe 03 fe ef fe 01 29 81 07 f9 fe
       -10 34 4 -29 -1 -2 3 -2 -17 -2 1 41 -127 7 -7 -2
0000a0 03 04 f0 fd e2 0a 06 12 fa f7 04 18 f6 11 03 10
       3 4 -16 -3 -30 10 6 18 -6 -9 4 24 -10 17 3 16
0000b0 03 02 10 12 f5 18 2c 04 0c 08 16 e1 07 fa 03 11
       3 2 16 18 -11 24 44 4 12 8 22 -31 7 -6 3 17
0000c0 21 e2 08 0a 14 1d 1a eb e2 05 f6 f0 ff 0d 00 12
       33 -30 8 10 20 29 26 -21 -30 5 -10 -16 -1 13 0 18
0000d0 14 f6 b1 01 fb 0e 0c 48 01 e8 08 31 09 b8 11 06
       20 -10 -79 1 -5 14 12 72 1 -24 8 49 9 -72 17 6
0000e0 10 db 1f 81 0a 21 00 0f ec 15 08 e7 f7 eb 07 04
       16 -37 31 -127 10 33 0 15 -20 21 8 -25 -9 -21 7 4
0000f0 1f fc ef 3e 02 f5 0b 1b 01 f9 26 0a 05 2f 02 05
       31 -4 -17 62 2 -11 11 27 1 -7 38 10 5 47 2 5

model_1/block_3_depthwise_BN/FusedBatchNormV3;model_1/block_3_depthwise/depthwise i1 [1, 3, 3, 48]
000000 46 a3 60 48 34 de 6a c0 3b a7 b1 2f 34 d7 b7 a6
       70 -93 96 72 52 -34 106 -64 59 -89 -79 47 52 -41 -73 -90
000010 65 4f 31 4e 43 b7 ad 32 df d7 c1 c1 bd 3d c2 8e
       101 79 49 78 67 -73 -83 50 -33 -41 -63 -63 -67 61 -62 -114
000020 f3 29 44 3f bf 35 ce e9 32 b6 39 3d a4 0a 4b de
       -13 41 68 63 -65 53 -50 -23 50 -74 57 61 -92 10 75 -34
000030 53 a0 7f 56 b3 bb c8 ad 5f 99 c0 49 4f 93 a0 5c
       83 -96 127 86 -77 -69 -56 -83 95 -103 -64 73 79 -109 -96 92
000040 d9 61 52 7f 55 8d 35 47 cc b2 bb b1 37 4f e2 81
       -39 97 82 127 85 -115 53 71 -52 -78 -69 -79 55 79 -30 -127
000050 aa 4f 50 53 af 52 ad f0 4c a3 52 59 b8 81 5c 98
       -86 79 80 83 -81 82 -83 -16 76 -93 82 89 -72 -127 92 -104
000060 23 d1 46 26 13 d6 d1 d9 29 e1 05 22 1c b2 c9 ff
       35 -47 70 38 19 -42 -47 -39 41 -31 5 34 28 -78 -55 -1
000070 c9 26 23 46 21 ca 1f 19 e5 d2 d5 e9 1e 1e 58 a7
       -55 38 35 70 33 -54 31 25 -27 -46 -43 -23 30 30 88 -89
000080 ac 2b 22 22 e3 27 da f6 28 d8 23 2b fb f7 24 b7
       -84 43 34 34 -29 39 -38 -10 40 -40 35 43 -5 -9 36 -73
000090 5d 8f d6 5d 36 ae 7f a7 56 8f b9 51 54 91 f2 81
       93 -113 -42 93 54 -82 127 -89 86 -113 -71 81 84 -111 -14 -127
0000a0 7f 6b 4a d9 53 6b 81 48 49 b4 a2 9e 81 55 bb f6
       127 107 74 -39 83 107 -127 72 73 -76 -94 -98 -127 85 -69 -10
0000b0 a9 47 6a 60 ab 4f b0 59 54 9b 57 5b a8 6b 5e a5
       -87 71 106 96 -85 79 -80 89 84 -101 87 91 -88 107 94 -91
0000c0 7f 81 c0 7f 81 81 a6 81 7f 81 81 7f 7f 81 e9 62
       127 -127 -64 127 -127 -127 -90 -127 127 -127 -127 127 127 -127 -23 98
0000d0 bd 7f 7f cc 7f 7f 45 7f 7f 81 81 81 34 7f e4 0f
       -67 127 127 -52 127 127 69 127 127 -127 -127 -127 52 127 -28 15
0000e0 81 7f 7f 7f 81 7f 81 7f 7f 81 7f 7f 81 f5 7f 81
       -127 127 127 127 -127 127 -127 127 127 -127 127 127 -127 -11 127 -127
0000f0 3f b1 df 42 25 c2 d0 c2 38 d6 c5 3a 30 ca f0 0a
       63 -79 -33 66 37 -62 -48 -62 56 -42 -59 58 48 -54 -16 10

model_1/block_3_expand/Conv2D i1 [48, 1, 1, 8]
000000 81 05 01 4e df 27 1c e1 15 41 26 1a 15 da 65 7f
       -127 5 1 78 -33 39 28 -31 21 65 38 26 21 -38 101 127
000010 dc 02 07 02 81 f1 09 fe 5d 00 f2 85 81 11 29 ed
       -36 2 7 2 -127 -15 9 -2 93 0 -14 -123 -127 17 41 -19
000020 81 35 ee f4 46 f0 33 16 a0 e8 12 f8 81 06 0a 50
       -127 53 -18 -12 70 -16 51 22 -96 -24 18 -8 -127 6 10 80
000030 f5 81 14 ef 06 07 01 20 be f9 05 5e 7f e4 de 02
       -11 -127 20 -17 6 7 1 32 -66 -7 5 94 127 -28 -34 2
000040 48 ff 02 81 03 e6 d7 e2 fb 81 ff fc fd 5d c4 57
       72 -1 2 -127 3 -26 -41 -30 -5 -127 -1 -4 -3 93 -60 87
000050 a4 ff 03 15 81 48 39 ec 79 09 28 10 c6 cf e2 81
       -92 -1 3 21 -127 72 57 -20 121 9 40 16 -58 -49 -30 -127
000060 fc 0c 27 fa 0e b7 7f 3e 46 e5 fe f2 7f 7f 78 d2
       -4 12 39 -6 14 -73 127 62 70 -27 -2 -14 127 127 120 -46
000070 7f 2b ea 0d ac f7 e3 f0 f1 81 10 f4 01 02 01 21
       127 43 -22 13 -84 -9 -29 -16 -15 -127 16 -12 1 2 1 33
000080 cc ef 04 fa 81 03 0d 01 eb 6d 89 ff 13 81 66 a4
       -52 -17 4 -6 -127 3 13 1 -21 109 -119 -1 19 -127 102 -92
000090 7f e1 d1 0c c6 1d 08 6a 7f d6 eb f9 29 02 19 ff
       127 -31 -47 12 -58 29 8 106 127 -42 -21 -7 41 2 25 -1
0000a0 7f 1b f3 72 f9 20 00 c6 fe 26 c8 04 e4 59 81 ac
       127 27 -13 114 -7 32 0 -58 -2 38 -56 4 -28 89 -127 -84
0000b0 81 11 23 fb dd 01 c6 e5 dc c6 05 16 81 41 4c ee
       -127 17 35 -5 -35 1 -58 -27 -36 -58 5 22 -127 65 76 -18
0000c0 7f f5 f5 f8 aa fa 04 08 18 f5 00 eb 7f 30 30 df
       127 -11 -11 -8 -86 -6 4 8 24 -11 0 -21 127 48 48 -33
0000d0 02 a4 0a da 08 81 4a c7 ed 81 1c f2 ff c7 21 f8
       2 -92 10 -38 8 -127 74 -57 -19 -127 28 -14 -1 -57 33 -8
0000e0 97 28 e9 16 ed e0 7f 65 f1 2a 12 06 03 2a 9e 81
       -105 40 -23 22 -19 -32 127 101 -15 42 18 6 3 42 -98 -127
0000f0 7f eb 02 10 b5 fe de e9 f5 dc 38 ec 18 98 7f 42
       127 -21 2 16 -75 -2 -34 -23 -11 -36 56 -20 24 -104 127 66

model_1/block_2_project/Conv2D i1 [8, 1, 1, 48]
000000 cf f5 dd 13 03 ea 00 05 8f 7f d8 75 71 05 43 ee
       -49 -11 -35 19 3 -22 0 5 -113 127 -40 117 113 5 67 -18
000010 f9 dd 05 09 f5 fe e7 dc 13 a2 07 3e f8 0a 12 df
       -7 -35 5 9 -11 -2 -25 -36 19 -94 7 62 -8 10 18 -33
000020 fe b8 6f 0f fa ff f9 ef 70 fb 2b e8 e4 15 ee f1
       -2 -72 111 15 -6 -1 -7 -17 112 -5 43 -24 -28 21 -18 -15
000030 fe 22 7f 07 fd e2 01 ad 1a 02 1a 0a eb 08 f9 81
       -2 34 127 7 -3 -30 1 -83 26 2 26 10 -21 8 -7 -127
000040 0c c5 06 04 e2 1f 1a db ed fa 12 04 0c f8 0a fb
       12 -59 6 4 -30 31 26 -37 -19 -6 18 4 12 -8 10 -5
000050 fa 0c 14 0e f7 de 41 c2 09 29 f3 1c f2 06 19 00
       -6 12 20 14 -9 -34 65 -62 9 41 -13 28 -14 6 25 0
000060 01 ce 0f d5 20 19 f8 e5 04 01 fe 10 f7 38 07 ff
       1 -50 15 -43 32 25 -8 -27 4 1 -2 16 -9 56 7 -1
000070 d8 7f e5 dc ef 16 d8 f8 79 00 01 f9 e5 f5 04 d6
       -40 127 -27 -36 -17 22 -40 -8 121 0 1 -7 -27 -11 4 -42
000080 f6 f3 00 0c f8 ff f1 03 10 ef ee ff 03 17 ea d9
       -10 -13 0 12 -8 -1 -15 3 16 -17 -18 -1 3 23 -22 -39
000090 ff a9 00 09 05 fb f5 fe f6 f6 13 14 0f f8 2e 04
       -1 -87 0 9 5 -5 -11 -2 -10 -10 19 20 15 -8 46 4
0000a0 f6 eb 02 14 f8 12 ea 01 08 34 01 08 f8 07 7f ff
       -10 -21 2 20 -8 18 -22 1 8 52 1 8 -8 7 127 -1
0000b0 0a 04 fd 01 ec f4 f7 0c f9 05 f6 1d f7 01 00 21
       10 4 -3 1 -20 -12 -9 12 -7 5 -10 29 -9 1 0 33
0000c0 a1 04 03 02 fc db 01 05 25 d8 15 ec dd ff f1 f4
       -95 4 3 2 -4 -37 1 5 37 -40 21 -20 -35 -1 -15 -12
0000d0 ff 05 ff 1b 0c e8 0b 06 f6 2e 02 6a ff 00 f8 e1
       -1 5 -1 27 12 -24 11 6 -10 46 2 106 -1 0 -8 -31
0000e0 01 81 e3 08 00 00 05 03 cd f8 f1 11 c3 02 04 02
       1 -127 -29 8 0 0 5 3 -51 -8 -15 17 -61 2 4 2
0000f0 e5 17 14 06 d4 0e fb 2c 18 05 0b 0b 00 d8 0a 20
       -27 23 20 6 -44 14 -5 44 24 5 11 11 0 -40 10 32

model_1/block_2_depthwise_BN/FusedBatchNormV3;model_1/block_2_depthwise/depthwise;model_1/block_3_depthwise/depthwise i1 [1, 3, 3, 48]
000000 05 fd 15 6d 04 51 00 1c 0f 08 09 08 f8 f7 d3 08
       5 -3 21 109 4 81 0 28 15 8 9 8 -8 -9 -45 8
000010 fe 08 e8 8e f9 e9 7f f6 fd 06 fb 08 fb 05 0f 63
       -2 8 -24 -114 -7 -23 127 -10 -3 6 -5 8 -5 5 15 99
000020 14 1c 26 e4 01 23 ff 02 11 bc f8 f7 11 03 f9 f6
       20 28 38 -28 1 35 -1 2 17 -68 -8 -9 17 3 -7 -10
000030 7f 0a 0f 81 1b 57 0b 0b 7b 7f 07 2b ce e8 05 08
       127 10 15 -127 27 87 11 11 123 127 7 43 -50 -24 5 8
000040 7f c8 c4 c8 9a 19 92 0e 11 47 e1 ac 17 15 0a 84
       127 -56 -60 -56 -102 25 -110 14 17 71 -31 -84 23 21 10 -124
000050 05 c3 7f 09 d8 d2 fa 75 b1 9d e3 03 de f8 81 17
       5 -61 127 9 -40 -46 -6 117 -79 -99 -29 3 -34 -8 -127 23
000060 e0 fd 08 0f 00 41 04 11 1b 08 f2 1f f2 fd 0f 04
       -32 -3 8 15 0 65 4 17 27 8 -14 31 -14 -3 15 4
000070 99 1d fd 4e e0 f4 ee fa fc c4 fd 1d ef 05 04 e9
       -103 29 -3 78 -32 -12 -18 -6 -4 -60 -3 29 -17 5 4 -23
000080 08 e8 10 ed 00 30 2a f3 32 26 f1 0b d5 04 fe fa
       8 -24 16 -19 0 48 42 -13 50 38 -15 11 -43 4 -2 -6
000090 7c 07 01 9e 0d e6 24 f0 09 08 f3 35 f9 ff 12 df
       124 7 1 -98 13 -26 36 -16 9 8 -13 53 -7 -1 18 -33
0000a0 00 ce c4 aa 0a b6 83 ee 05 63 f2 81 f7 21 0c 94
       0 -50 -60 -86 10 -74 -125 -18 5 99 -14 -127 -9 33 12 -108
0000b0 11 cc fe 7f fd 3b d7 28 c2 81 27 a7 d4 f2 f3 fb
       17 -52 -2 127 -3 59 -41 40 -62 -127 39 -89 -44 -14 -13 -5
0000c0 1a 81 81 72 81 81 81 81 81 9f 7f 81 7f 7f 23 81
       26 -127 -127 114 -127 -127 -127 -127 -127 -97 127 -127 127 127 35 -127
0000d0 ad 7f 7f 95 7f 7f 70 7f 7f 81 81 1c 81 81 5e 7f
       -83 127 127 -107 127 127 112 127 127 -127 -127 28 -127 -127 94 127
0000e0 81 7f e2 d6 7f 81 7f 7f 7f af 7f 7f 7f 86 65 6b
       -127 127 -30 -42 127 -127 127 127 127 -81 127 127 127 -122 101 107
0000f0 35 06 31 f3 05 c3 2c 12 e8 0e 96 f8 00 d8 7f 04
       53 6 49 -13 5 -61 44 18 -24 14 -106 -8 0 -40 127 4

model_1/block_2_expand/Conv2D i1 [48, 1, 1, 8]
000000 58 28 f7 f7 7f 18 c4 dc f6 01 02 7f 06 fa 05 0e
       88 40 -9 -9 127 24 -60 -36 -10 1 2 127 6 -6 5 14
000010 1f 81 e8 29 f6 b6 56 0d 7f e3 f7 0e fe dd 1d 07
       31 -127 -24 41 -10 -74 86 13 127 -29 -9 14 -2 -35 29 7
000020 09 d5 7f f2 f1 d1 0b a4 42 ff 04 fa 7f 0e f3 02
       9 -43 127 -14 -15 -47 11 -92 66 -1 4 -6 127 14 -13 2
000030 f5 58 ee 7f 1e 36 b3 c6 fe 7f 00 02 02 f7 0b fa
       -11 88 -18 127 30 54 -77 -58 -2 127 0 2 2 -9 11 -6
000040 7f 3a 00 0a c3 e8 03 db 81 11 05 12 3d 04 f9 03
       127 58 0 10 -61 -24 3 -37 -127 17 5 18 61 4 -7 3
000050 b3 f4 0b 7f 27 1c eb 00 81 fe 0d c4 25 01 f0 d9
       -77 -12 11 127 39 28 -21 0 -127 -2 13 -60 37 1 -16 -39
000060 7f 15 fe 11 cd f2 04 d6 f7 48 81 f8 08 62 b6 4e
       127 21 -2 17 -51 -14 4 -42 -9 72 -127 -8 8 98 -74 78
000070 d4 ec f4 7f 10 0b f6 e3 fb 7f 00 fd 00 ef 0a d0
       -44 -20 -12 127 16 11 -10 -29 -5 127 0 -3 0 -17 10 -48
000080 f9 81 eb 06 f4 85 73 e7 15 7f 05 f3 09 50 a1 ec
       -7 -127 -21 6 -12 -123 115 -25 21 127 5 -13 9 80 -95 -20
000090 f5 30 81 04 04 33 e4 40 b9 0a fe fe 81 05 19 1f
       -11 48 -127 4 4 51 -28 64 -71 10 -2 -2 -127 5 25 31
0000a0 81 e3 fb fc 4d e3 2e 05 c2 f8 ff ff 81 fc 0d 0a
       -127 -29 -5 -4 77 -29 46 5 -62 -8 -1 -1 -127 -4 13 10
0000b0 81 eb fc fa 4e ec 22 35 eb ed fb f6 fc 4f 81 a1
       -127 -21 -4 -6 78 -20 34 53 -21 -19 -5 -10 -4 79 -127 -95
0000c0 f7 29 81 01 08 2c ef 4c 5c d8 fa 7f a9 fc 14 c9
       -9 41 -127 1 8 44 -17 76 92 -40 -6 127 -87 -4 20 -55
0000d0 02 eb fb 00 fc 72 7f e7 4a f6 f9 0b 7f 16 28 f0
       2 -21 -5 0 -4 114 127 -25 74 -10 -7 11 127 22 40 -16
0000e0 02 7f bf 01 01 4d e2 76 fb 0c fb fa 04 5a 81 a8
       2 127 -65 1 1 77 -30 118 -5 12 -5 -6 4 90 -127 -88
0000f0 05 f9 ff 81 fa ff ff f5 bc 03 04 04 81 0e 0d ff
       5 -7 -1 -127 -6 -1 -1 -11 -68 3 4 4 -127 14 13 -1

model_1/block_1_project/Conv2D i1 [8, 1, 1, 48]
000000 f5 ff 0a a5 0a 17 06 06 02 05 02 fc 5e 00 00 05
       -11 -1 10 -91 10 23 6 6 2 5 2 -4 94 0 0 5
000010 00 f8 f8 01 4c fd 01 03 1c 21 0c 0b 04 03 02 81
       0 -8 -8 1 76 -3 1 3 28 33 12 11 4 3 2 -127
000020 0c 04 00 ff e5 03 f0 21 08 e8 f7 04 01 00 03 02
       12 4 0 -1 -27 3 -16 33 8 -24 -9 4 1 0 3 2
000030 db fa fe f8 2d 1e e2 4e 13 07 dd e7 0a 00 12 24
       -37 -6 -2 -8 45 30 -30 78 19 7 -35 -25 10 0 18 36
000040 00 2c 10 ce 02 18 7f 14 e5 ff 36 06 13 fd 11 f3
       0 44 16 -50 2 24 127 20 -27 -1 54 6 19 -3 17 -13
000050 0f f9 f6 eb 08 c8 07 03 fa f8 ac f8 dd 09 ce 9a
       15 -7 -10 -21 8 -56 7 3 -6 -8 -84 -8 -35 9 -50 -102
000060 bf 0d fd 09 2e f6 1d 18 f9 34 0a fa 06 00 05 37
       -65 13 -3 9 46 -10 29 24 -7 52 10 -6 6 0 5 55
000070 00 0b 81 17 ff 0c 06 ef df 02 28 04 07 1e 19 05
       0 11 -127 23 -1 12 6 -17 -33 2 40 4 7 30 25 5
000080 09 f6 f7 f3 0a 05 04 03 26 fa e3 01 1a c2 1a 10
       9 -10 -9 -13 10 5 4 3 38 -6 -29 1 26 -62 26 16
000090 02 00 fd 09 fa 1c fe fe 42 14 ff fc 1c 00 e1 f6
       2 0 -3 9 -6 28 -2 -2 66 20 -1 -4 28 0 -31 -10
0000a0 00 02 f5 00 fa 01 08 f0 f6 fc f9 fc f6 fb fe f8
       0 2 -11 0 -6 1 8 -16 -10 -4 -7 -4 -10 -5 -2 -8
0000b0 cd 2f c7 fd 06 ff 05 81 fe 05 fe ce fc 01 ff 08
       -51 47 -57 -3 6 -1 5 -127 -2 5 -2 -50 -4 1 -1 8
0000c0 03 ff 55 24 02 e9 fd fe 02 ff fe f6 ac 00 f7 02
       3 -1 85 36 2 -23 -3 -2 2 -1 -2 -10 -84 0 -9 2
0000d0 00 0c 03 ff 43 05 03 fd f3 20 fc 2b f8 fe ff 60
       0 12 3 -1 67 5 3 -3 -13 32 -4 43 -8 -2 -1 96
0000e0 02 05 fe fe 12 f3 f6 ef fd 81 01 05 fd fe 00 00
       2 5 -2 -2 18 -13 -10 -17 -3 -127 1 5 -3 -2 0 0
0000f0 f7 29 02 f6 03 30 18 0d ef 1d 08 35 1b 00 81 00
       -9 41 2 -10 3 48 24 13 -17 29 8 53 27 0 -127 0

model_1/block_1_depthwise_BN/FusedBatchNormV3;model_1/block_1_depthwise/depthwise;model_1/block_3_depthwise/depthwise i1 [1, 3, 3, 48]
000000 d6 ea f9 f0 08 d9 b1 bd e5 ce 09 41 23 b9 72 d5
       -42 -22 -7 -16 8 -39 -79 -67 -27 -50 9 65 35 -71 114 -43
000010 8f ab 25 fa ff b8 91 b0 de 82 c1 ec 47 0f 5f 19
       -113 -85 37 -6 -1 -72 -111 -80 -34 -126 -63 -20 71 15 95 25
000020 81 a8 f8 36 12 30 81 4e b3 f2 69 94 fd de a9 6a
       -127 -88 -8 54 18 48 -127 78 -77 -14 105 -108 -3 -34 -87 106
000030 4c 0c e4 e4 39 81 81 af 3d b5 8c 6c 25 ae 00 3e
       76 12 -28 -28 57 -127 -127 -81 61 -75 -116 108 37 -82 0 62
000040 cc 90 3b 07 0a 90 81 ba fc 81 88 d8 ca 15 c8 37
       -52 -112 59 7 10 -112 -127 -70 -4 -127 -120 -40 -54 21 -56 55
000050 1d 81 40 54 0d 49 a3 7f 81 06 7d 81 01 ea 81 5e
       29 -127 64 84 13 73 -93 127 -127 6 125 -127 1 -22 -127 94
000060 e1 2b 06 fb bf 95 c5 ee 57 f8 81 26 09 b9 9c f5
       -31 43 6 -5 -65 -107 -59 -18 87 -8 -127 38 9 -71 -100 -11
000070 81 e7 1b 0c f1 b4 dd e8 f5 e3 c7 f5 f6 12 e8 09
       -127 -25 27 12 -15 -76 -35 -24 -11 -29 -57 -11 -10 18 -24 9
000080 6a aa 47 20 0e 24 fb 10 b1 03 07 b2 ef 06 c9 0f
       106 -86 71 32 14 36 -5 16 -79 3 7 -78 -17 6 -55 15
000090 ab 81 d4 d4 f6 36 62 97 e5 94 eb 70 5b c0 1c 9f
       -85 -127 -44 -44 -10 54 98 -105 -27 -108 -21 112 91 -64 28 -97
0000a0 87 a2 59 b3 2a a8 9a 81 2a 89 b2 db 7f c4 7f 53
       -121 -94 89 -77 42 -88 -102 -127 42 -119 -78 -37 127 -60 127 83
0000b0 d4 ad f1 53 dd b3 96 59 2a 3b 69 95 a4 8b 52 78
       -44 -83 -15 83 -35 -77 -106 89 42 59 105 -107 -92 -117 82 120
0000c0 7f ad 81 81 7f 28 5d 81 65 81 90 7f 7f f2 fa 7f
       127 -83 -127 -127 127 40 93 -127 101 -127 -112 127 127 -14 -6 127
0000d0 c4 81 7f 81 7f 81 89 89 7f 9c 81 81 88 81 ba 7f
       -60 -127 127 -127 127 -127 -119 -119 127 -100 -127 -127 -120 -127 -70 127
0000e0 1c 90 7f 7f bc 81 a0 5a 3d 7f 7f 8c 8f 81 7d 7f
       28 -112 127 127 -68 -127 -96 90 61 127 127 -116 -113 -127 125 127
0000f0 cc 1f c2 ab 87 e9 1f da 7f ec b3 24 39 ba e7 d4
       -52 31 -62 -85 -121 -23 31 -38 127 -20 -77 36 57 -70 -25 -44

model_1/block_1_expand/Conv2D i1 [48, 1, 1, 8]
000000 14 81 32 d0 21 ed cb 1b 44 40 e5 aa 0a ef b7 7f
       20 -127 50 -48 33 -19 -53 27 68 64 -27 -86 10 -17 -73 127
000010 1e 04 d3 7f 31 7e 2c 60 55 4e b2 7f a1 f6 f3 0d
       30 4 -45 127 49 126 44 96 85 78 -78 127 -95 -10 -13 13
000020 da 9a 48 0f 04 25 d9 81 16 03 df 29 02 df 24 7f
       -38 -102 72 15 4 37 -39 -127 22 3 -33 41 2 -33 36 127
000030 3c ed 81 98 79 16 2d d1 7f 0f 19 ea 1b fa 57 c0
       60 -19 -127 -104 121 22 45 -47 127 15 25 -22 27 -6 87 -64
000040 16 a0 06 69 03 15 f8 81 69 81 08 04 f8 0a 90 59
       22 -96 6 105 3 21 -8 -127 105 -127 8 4 -8 10 -112 89
000050 81 d7 84 14 f6 fd 96 34 eb d6 f7 99 81 e0 2f f3
       -127 -41 -124 20 -10 -3 -106 52 -21 -42 -9 -103 -127 -32 47 -13
000060 0c 08 dd 46 b8 ed 39 7f 00 00 00 00 00 00 00 00
       12 8 -35 70 -72 -19 57 127 0 0 0 0 0 0 0 0
000070 fc db f8 0e 30 7f 2c 2a 2f ff 11 81 45 2a c6 4c
       -4 -37 -8 14 48 127 44 42 47 -1 17 -127 69 42 -58 76
000080 00 00 00 00 00 00 00 00 0d 16 7f 13 e5 f5 1a 1b
       0 0 0 0 0 0 0 0 13 22 127 19 -27 -11 26 27
000090 52 81 14 1f fd 10 91 ff 81 ee 14 49 d1 d1 ac 48
       82 -127 20 31 -3 16 -111 -1 -127 -18 20 73 -47 -47 -84 72
0000a0 24 21 d7 6a ef 81 f7 36 3d 16 7f 0b ef f3 46 0d
       36 33 -41 106 -17 -127 -9 54 61 22 127 11 -17 -13 70 13
0000b0 ab f0 81 01 02 0b 94 01 9b 7b ed e7 09 f0 7f b1
       -85 -16 -127 1 2 11 -108 1 -101 123 -19 -25 9 -16 127 -79
0000c0 07 c6 cc 54 fa bf 62 7f 10 31 28 23 7f 7a ae cc
       7 -58 -52 84 -6 -65 98 127 16 49 40 35 127 122 -82 -52
0000d0 ac de 81 00 07 0c 9d 00 ff e7 da 02 cc 7f 4e 36
       -84 -34 -127 0 7 12 -99 0 -1 -25 -38 2 -52 127 78 54
0000e0 01 ee ec 2c 18 7f 36 3e 59 21 7f ff e8 eb 59 f7
       1 -18 -20 44 24 127 54 62 89 33 127 -1 -24 -21 89 -9
0000f0 b5 7f e6 e2 0a f6 63 d4 d4 a0 ec 06 21 bf 7f 6a
       -75 127 -26 -30 10 -10 99 -44 -44 -96 -20 6 33 -65 127 106

model_1/expanded_conv_project/Conv2D i1 [8, 1, 1, 16]
000000 00 e9 01 fd 7f 02 ff 03 fe 82 a7 fd 00 79 fe 00
       0 -23 1 -3 127 2 -1 3 -2 -126 -89 -3 0 121 -2 0
000010 00 e1 01 59 4a 0f 16 07 ff fb 7f d5 00 1f f2 00
       0 -31 1 89 74 15 22 7 -1 -5 127 -43 0 31 -14 0
000020 00 ff fc f5 c8 03 0a 03 00 04 ef 03 00 7f fa 00
       0 -1 -4 -11 -56 3 10 3 0 4 -17 3 0 127 -6 0
000030 00 f7 ef 81 50 16 46 0f fe 3c fe 24 00 00 11 00
       0 -9 -17 -127 80 22 70 15 -2 60 -2 36 0 0 17 0
000040 00 30 e3 22 cc 1f 7f 0b 02 c7 10 fa 00 fc 0e 00
       0 48 -29 34 -52 31 127 11 2 -57 16 -6 0 -4 14 0
000050 00 ee f6 ff eb ea f4 12 00 0b fb d6 00 fd 7f 00
       0 -18 -10 -1 -21 -22 -12 18 0 11 -5 -42 0 -3 127 0
000060 00 14 ff 02 31 e9 eb f6 04 95 6e 3c 00 7f 3f 00
       0 20 -1 2 49 -23 -21 -10 4 -107 110 60 0 127 63 0
000070 00 0f f3 7f 07 ff 14 0a 04 46 cb 4f 00 f7 30 00
       0 15 -13 127 7 -1 20 10 4 70 -53 79 0 -9 48 0

model_1/expanded_conv_depthwise_BN/FusedBatchNormV3;model_1/expanded_conv_depthwise/depthwise;model_1/block_5_project/Conv2D i1 [1, 3, 3, 16]
000000 94 13 ae 81 27 bd 50 b4 a7 fd f8 1d 81 05 36 b7
       -108 19 -82 -127 39 -67 80 -76 -89 -3 -8 29 -127 5 54 -73
000010 33 19 81 7f 7f 81 7f 81 ac 7f 81 33 97 05 7f e7
       51 25 -127 127 127 -127 127 -127 -84 127 -127 51 -105 5 127 -25
000020 18 e8 5b fe b8 43 a1 4e a2 e5 04 f1 3d 01 9a e3
       24 -24 91 -2 -72 67 -95 78 -94 -27 4 -15 61 1 -102 -29
000030 81 7f ea 0d d4 0f e3 0e e4 00 03 93 cf 08 e2 f2
       -127 127 -22 13 -44 15 -29 14 -28 0 3 -109 -49 8 -30 -14
000040 b2 d7 c7 f1 f9 e6 08 e5 94 a7 15 f4 98 81 01 17
       -78 -41 -57 -15 -7 -26 8 -27 -108 -89 21 -12 -104 -127 1 23
000050 0e 01 41 02 03 21 e6 22 81 06 fe 02 eb 0c fc 2b
       14 1 65 2 3 33 -26 34 -127 6 -2 2 -21 12 -4 43
000060 8d b8 45 02 fa 27 d9 34 b4 00 00 04 28 02 e5 17
       -115 -72 69 2 -6 39 -39 52 -76 0 0 4 40 2 -27 23
000070 17 fc 20 fe e5 28 de 15 82 f3 00 54 c6 00 e3 91
       23 -4 32 -2 -27 40 -34 21 -126 -13 0 84 -58 0 -29 -111
000080 15 f9 13 00 04 0e 09 16 8e 04 ff 81 6b 02 11 81
       21 -7 19 0 4 14 9 22 -114 4 -1 -127 107 2 17 -127

model_1/Conv1/Conv2D i1 [16, 3, 3, 3]
000000 00 00 00 00 00 00 00 00 00 00 00 00 00 00 00 00
       0 0 0 0 0 0 0 0 0 0 0 0 0 0 0 0
000010 00 00 00 00 00 00 00 00 00 00 00 29 f6 17 f7 e4
       0 0 0 0 0 0 0 0 0 0 0 41 -10 23 -9 -28
000020 0a 81 88 bf fe f5 fa e7 fd f6 fe de 02 f9 0b fa
       10 -127 -120 -65 -2 -11 -6 -25 -3 -10 -2 -34 2 -7 11 -6
000030 f7 02 f9 23 ea 09 21 f3 f3 52 71 f9 2c d2 02 0d
       -9 2 -7 35 -22 9 33 -13 -13 82 113 -7 44 -46 2 13
000040 07 f9 45 7f db 14 f5 f2 32 b3 0f 4c ca e2 20 bf
       7 -7 69 127 -37 20 -11 -14 50 -77 15 76 -54 -30 32 -65
000050 08 05 1d 02 23 5e 16 04 07 fd 13 20 04 43 7f 1d
       8 5 29 2 35 94 22 4 7 -3 19 32 4 67 127 29
000060 f6 f0 05 04 00 01 1a 1a 09 02 ff 05 28 4c f8 10
       -10 -16 5 4 0 1 26 26 9 2 -1 5 40 76 -8 16
000070 53 f4 ef 04 f8 2a 62 38 1e 7f 23 1d 30 ed 33 53
       83 -12 -17 4 -8 42 98 56 30 127 35 29 48 -19 51 83
000080 28 2a 7f 12 e7 15 12 04 ff 82 f7 fc 92 f6 1a e3
       40 42 127 18 -25 21 18 4 -1 -126 -9 -4 -110 -10 26 -29
000090 02 d6 81 fc d2 8f fc 0d eb fd 0a ef 03 01 f8 01
       2 -42 -127 -4 -46 -113 -4 13 -21 -3 10 -17 3 1 -8 1
0000a0 0f f8 18 c1 23 2e a8 29 08 eb 09 23 a1 3f 3e 81
       15 -8 24 -63 35 46 -88 41 8 -21 9 35 -95 63 62 -127
0000b0 4a 05 e2 12 14 df 10 0d d5 1c f2 07 01 e1 13 08
       74 5 -30 18 20 -33 16 13 -43 28 -14 7 1 -31 19 8
0000c0 97 de 06 e6 19 06 f0 fb 06 81 a9 fe f6 fb 07 e7
       -105 -34 6 -26 25 6 -16 -5 6 -127 -87 -2 -10 -5 7 -25
0000d0 1e fa f2 0b 03 e8 17 fe 7f 51 08 7b 52 0f 69 32
       30 -6 -14 11 3 -24 23 -2 127 81 8 123 82 15 105 50
0000e0 ed 75 2b e2 73 35 ed 5d 07 d3 4f ed be 54 fc ce
       -19 117 43 -30 115 53 -19 93 7 -45 79 -19 -66 84 -4 -50
0000f0 2a d9 ba ee fd 08 f7 fd 01 08 06 f7 5d 6e f7 4b
       42 -39 -70 -18 -3 8 -9 -3 1 8 6 -9 93 110 -9 75
